src/trained_model_SecureWeb_DO.pth (torch, 8875 bytes, 14 tensors)

weight f4 [8, 10]
0.37910873 -0.434593 0.59705925 -0.18977582 -0.39928174 0.3580864 0.23241603 0.34204653
-0.20671657 0.6466711 -0.028061964 0.33420032 0.340635 -0.40324876 -0.1436361 0.561065
0.53583807 -0.004606314 0.34116706 -0.29314074 -0.001554633 -0.43151593 -0.12156009 -0.05898732
-0.36458424 0.379984 -0.367963 -0.1151363 0.22836839 -0.09980942 -0.09342248 -0.49609333
0.38430268 -0.09551239 0.3238253 0.56360775 0.0013444888 0.13007864 -0.24571292 0.11093894
-0.45072806 -0.0069543123 -0.065909326 0.10862976 0.14245296 0.35828608 -0.020388186 0.13005048
-0.08996078 0.33515477 -0.5704345 -0.08558589 0.041995823 -0.089177966 -0.08259013 0.2620471
-0.05286199 0.552034 0.2446093 -0.26663673 -0.07020396 0.42190373 -0.3147567 0.2549184
-0.31083867 0.3548122 -0.2312608 -0.3598358 -0.22381204 0.10973722 -0.1515543 -0.061247017
0.092020646 -0.447015 0.05699247 -0.10357816 -0.08803395 0.55862135 -0.5631363 0.55817586
00000000: 8a1a c23e f982 debe e0d8 183f 9854 42be
00000010: a86e ccbe 1a57 b73e 78fe 6d3e b920 af3e
00000020: 82ad 53be 3d8c 253f 34e2 e5bc 4e1c ab3e
00000030: b667 ae3e 9f76 cebe 5815 13be f5a1 0f3f
00000040: af2c 093f 90f0 96bb 73ad ae3e 8b16 96be
00000050: d4c4 cbba a8ef dcbe 7ff4 f8bd b09c 71bd
00000060: c9aa babe 438d c23e a565 bcbe 95cc ebbd
00000070: 67d9 693e e268 ccbd 4954 bfbd f2ff fdbe
00000080: 52c3 c43e 009c c3bd 6ecc a53e 9948 103f
00000090: 8f39 b03a 5633 053e 2b9c 7bbe f433 e33d
000000a0: d4c5 e6be 00e1 e3bb 78fb 86bd 4879 de3d
000000b0: 30df 113e 4671 b73e 2005 a7bc f42b 053e
000000c0: 5c3d b8bd 6899 ab3e ff07 12bf a847 afbd
000000d0: d003 2c3d f0a2 b6bd 0425 a9bd 0a2b 863e
000000e0: d085 58bd 1a52 0d3f dc7a 7a3e 9c84 88be
000000f0: 18c7 8fbd c403 d83e ca27 a1be aa84 823e
00000100: 3f26 9fbe f2a9 b53e a2cf 6cbe 663c b8be
00000110: fc2e 65be e8bd e03d 0d31 1bbe 27de 7abd
00000120: 5275 bc3d 26df e4be f070 693d c920 d4bd
00000130: 254b b4bd cf01 0f3f b329 10bf 9de4 0e3f

bias f4 [10]
-0.09419409 -0.014732648 0.29933423 0.0 0.0 0.50759697 0.5091311 0.39325592
-0.029891847 0.27224925
00000000: d5e8 c0bd 3461 71bc 5642 993e 0000 0000
00000010: 0000 0000 e0f1 013f 6a56 023f d758 c93e
00000020: bfdf f4bc 4164 8b3e

weight f4 [8, 10]
0.3793162 -0.17949226 0.5474975 0.17033452 -0.2774188 -0.09816906 -0.51534426 -0.17062816
0.108296394 -0.37031224 -0.007943571 -0.017663121 0.1790669 0.1760574 -0.52472866 0.1169076
-0.38635272 -0.19303581 -0.27058655 -0.1873273 0.5044681 -0.31980017 0.41805273 -0.33074296
-0.4638559 -0.010766506 0.067112625 0.2005195 0.4060591 0.018620789 0.1570453 0.21046507
-0.27236107 0.37128192 0.4663242 -0.4281373 -0.1267181 0.05086571 0.35780352 0.14528555
-0.20719433 -0.057290614 0.021054506 -0.16834947 0.23762393 0.5307108 0.077836156 0.42854166
-0.082351655 -0.14191574 0.45078564 -0.15597445 -0.5003063 -0.3838491 -0.23476836 -0.20283175
-0.22291464 0.32791603 0.46796072 0.44912493 0.4687351 -0.41507056 -0.26032543 -0.08939782
0.1291793 0.52632153 0.26674724 -0.109243095 -0.49994332 0.13518101 0.17397821 0.45163
0.36172187 0.54563093 0.56245947 0.49397302 0.57572603 -0.30104253 -0.4175664 -0.49814385
00000000: bc35 c23e d2cc 37be cc28 0c3f 2c6c 2e3e
00000010: d609 8ebe dc0c c9bd 9aed 03bf 26b9 2ebe
00000020: 80ca dd3d 9199 bdbe c025 02bc 40b2 90bc
00000030: 505d 373e 6448 343e 9e54 06bf 406d ef3d
00000040: 06d0 c5be 2eab 45be 528a 8abe bad2 3fbe
00000050: d224 013f d9bc a3be 020b d63e 2457 a9be
00000060: 857e edbe 0066 30bc 5872 893d fc54 4d3e
00000070: fae6 cf3e a08a 983c 7cd0 203e 2884 573e
00000080: e972 8bbe aa18 be3e 0cc2 ee3e d034 dbbe
00000090: 64c2 01be 9058 503d 0632 b73e bcc5 143e
000000a0: c02a 54be 90a9 6abd 807a ac3c ce63 2cbe
000000b0: b053 733e aadc 073f 9068 9f3d d069 db3e
000000c0: fca7 a8bd 5c52 11be 60cd e63e c4b7 1fbe
000000d0: 1314 00bf df87 c4be 1e67 70be 20b3 4fbe
000000e0: bc43 64be 9ce4 a73e 8c98 ef3e b4f3 e53e
000000f0: 0cfe ef3e 2184 d4be 6049 85be 3416 b7bd
00000100: 9447 043e 02bd 063f 1893 883e d8ba dfbd
00000110: 92f8 ffbe e46c 0a3e 5827 323e 0c3c e73e
00000120: 9c33 b93e 78ae 0b3f 58fd 0f3f 08ea fc3e
00000130: c862 133f 3f22 9abe 43cb d5be b60c ffbe

bias f4 [10]
0.0 0.0 0.0 0.0 0.0 0.0 0.0 0.0
0.0 0.0
00000000: 0000 0000 0000 0000 0000 0000 0000 0000
00000010: 0000 0000 0000 0000 0000 0000 0000 0000
00000020: 0000 0000 0000 0000

weight f4 [8, 10]
-0.52715766 -0.2881266 0.38372576 0.28715283 0.049722373 -0.07574326 -0.33684444 -0.5042943
0.4019782 0.07005113 -0.02406019 -0.32960194 -0.037879348 0.15383452 -0.06378317 0.50716686
0.16759175 0.23361856 -0.42183173 -0.18678316 0.20797509 0.50001216 -0.46908882 -0.5041189
0.31801772 -0.14727193 0.54228806 -0.34681308 -0.26306042 -0.09661272 -0.3745973 -0.0010506511
-0.2693722 0.28986198 -0.0674296 0.17221135 -0.19544938 0.49200833 -0.047219932 0.09502572
0.052085757 -0.38307303 -0.28879288 -0.3501562 0.054276943 0.15832055 -0.35625133 -0.1349965
-0.29628462 0.5229715 0.15564156 0.47463238 -0.22832018 0.31654692 -0.22979566 0.058259606
0.30656296 -0.17500257 -0.57413393 0.36123788 0.02614367 -0.1456624 -0.16156444 0.0023553371
-0.18194515 -0.14138177 0.29975784 0.15219748 -0.43781644 -0.515043 -0.5560331 -0.479058
0.5352626 0.41965455 0.27593285 0.027761579 -0.4251405 0.24061549 0.32152295 -0.2546993
00000000: cef3 06bf 5485 93be b477 c43e b205 933e
00000010: b0a9 4b3d 481f 9bbd e076 acbe 6e19 01bf
00000020: 16d0 cd3e f876 8f3d e019 c5bc 96c1 a8be
00000030: 6027 1bbd cc86 1d3e c0a0 82bd b0d5 013f
00000040: 2c9d 2b3e b439 6f3e 54fa d7be 1644 3fbe
00000050: 6cf7 543e cc00 003f 692c f0be f00d 01bf
00000060: 38d3 a23e 74ce 16be 64d3 0a3f 7c91 b1be
00000070: dbaf 86be e4dc c5bd 38cb bfbe 00b6 89ba
00000080: 27eb 89be ca68 943e 8818 8abd 2c58 303e
00000090: e223 48be 84e8 fb3e b069 41bd d89c c23d
000000a0: e057 553d 2622 c4be a9dc 93be ac47 b3be
000000b0: 8051 5e3d c81e 223e 9366 b6be 863c 0abe
000000c0: 9eb2 97be 76e1 053f 8060 1f3e 0403 f33e
000000d0: c4cc 69be 7012 a23e 8e4f 6bbe a0a1 6e3d
000000e0: d2f5 9c3e e033 33be 71fa 12bf 2cf4 b83e
000000f0: 402b d63c 8628 15be 2671 25be 005c 1a3b
00000100: d44f 3abe 62c6 10be dc79 993e a8d9 1b3e
00000110: 7a29 e0be dcd9 03bf 2f58 0ebf 1747 f5be
00000120: f806 093f f6dc d63e 1247 8d3e 406c e33c
00000130: 04ac d9be e863 763e a89e a43e f267 82be

bias f4 [10]
0.0 0.0 0.0 0.0 0.0 0.0 0.0 0.0
0.0 0.0
00000000: 0000 0000 0000 0000 0000 0000 0000 0000
00000010: 0000 0000 0000 0000 0000 0000 0000 0000
00000020: 0000 0000 0000 0000

weight f4 [10, 5]
-0.1872119 -0.48263237 -0.3987537 0.4679848 0.20628807 0.2714584 -0.33999458 0.28698078
-0.026412742 0.24656193 -0.7365101 0.49396026 0.34510964 -0.84831005 0.6111259 -0.54613847
-0.17545673 -0.49515712 0.32330823 0.5937925 -0.16455281 0.15994292 -0.6008231 0.4851113
-0.47494686 0.23476529 0.66059846 0.47930658 -0.077064395 -0.20333515 0.03573384 0.03470946
0.5742489 -0.479328 0.39670962 0.17129882 0.100604855 0.71119636 -0.7861027 0.78392476
-0.54550886 0.40041345 -0.30402666 -0.5937708 -0.4080408 0.18423115 0.7089303 0.45839754
-0.22393924 0.14687431
00000000: 7ab4 3fbe 971b f7be 7229 ccbe b49b ef3e
00000010: 2e3d 533e 98fc 8a3e c513 aebe 25ef 923e
00000020: 895f d8bc bb7a 7c3e ed8b 3cbf 5ce8 fc3e
00000030: 36b2 b03e d92a 59bf bf72 1c3f bbcf 0bbf
00000040: eeaa 33be 3c85 fdbe a888 a53e c902 183f
00000050: 8880 28be 14c8 233e 8bcf 19bf 8260 f83e
00000060: 3c2c f3be 5066 703e fb1c 293f ac67 f53e
00000070: f0d3 9dbd 1737 50be a65d 123d 822b 0e3d
00000080: fa01 133f 7b6a f5be 861d cb3e f568 2f3e
00000090: eb09 ce3d f710 363f 073e 49bf 4baf 483f
000000a0: 78a6 0bbf fe02 cd3e 62a9 9bbe 5d01 18bf
000000b0: b9ea d0be 17a7 3c3e 757c 353f 15b3 ea3e
000000c0: 5450 65be 3866 163e

bias f4 [5]
-0.18085827 0.22528578 0.21896401 -0.33192477 0.2817852
00000000: e932 39be 51b1 663e 1a38 603e 0bf2 a9be
00000010: 2646 903e

weight f4 [10, 5]
-0.5069653 0.23962536 0.33391866 0.32061055 0.5395582 0.43658692 0.41459233 -0.14216584
-0.41754386 -0.046895403 0.25435185 -0.7644491 -0.17082123 0.0012912449 -0.12038555 -0.19550505
-0.17148528 0.34042007 -0.5105971 -0.601596 0.17242134 0.059557438 0.5938384 -0.13522115
-0.14308345 -0.9473412 0.15356606 -0.21565025 0.80025154 -0.06238984 -0.4315281 -0.68433553
-1.0323818 0.21710658 -0.70882416 -0.5167383 -0.95128983 -0.1331076 0.71972257 -0.9276191
0.37451747 0.027532607 0.39931646 0.057972733 -0.45057672 0.09354304 0.26672575 -0.049756303
-0.13057467 -0.89026666
00000000: 7ac8 01bf 5a60 753e 63f7 aa3e 1127 a43e
00000010: 7c20 0a3f 5288 df3e 7245 d43e ec93 11be
00000020: 4fc8 d5be 6515 40bd 683a 823e f0b2 43bf
00000030: c3eb 2ebe fd3e a93a b38c f6bd 7a32 48be
00000040: d699 2fbe 8a4b ae3e 7eb6 02bf 3202 1abf
00000050: 388f 303e 80f2 733d cb05 183f 6a77 0abe
00000060: 7884 12be f484 72bf 6c40 1d3e 6bd3 5cbe
00000070: 49dd 4c3f 7d8c 7fbd 40f1 dcbe 9d30 2fbf
00000080: 1625 84bf 3051 5e3e 8075 35bf f648 04bf
00000090: bb87 73bf 5c4d 08be bd3f 383f 7278 6dbf
000000a0: c1c0 bf3e 108c e13c 3573 cc3e d174 6d3d
000000b0: feb1 e6be 7e93 bf3d 4790 883e 44cd 4bbd
000000c0: 5eb5 05be 84e8 63bf

bias f4 [5]
0.24414317 0.16172518 0.18683551 0.253657 0.16444077
00000000: ab00 7a3e 499b 253e cf51 3f3e 55df 813e
00000010: 2963 283e

weight f4 [10, 5]
-0.0009237253 -0.30184314 -0.45545697 0.56043625 0.68345094 -0.4448913 -0.16184215 -0.0965315
0.4010402 -0.046149664 0.8569638 0.40578672 0.14964043 -0.21237478 0.53938514 0.41028112
0.18085122 0.54035276 -0.14203909 -0.30591792 -0.29214236 -0.09852606 0.34539443 -0.16120869
0.29403472 0.7528145 0.100632384 0.82562274 0.3601444 0.6389822 0.961361 0.3348748
0.49704581 0.62610257 0.31144574 0.35951012 0.42987666 -0.29146364 0.92476505 0.68374765
-0.3855233 -0.11384602 -0.29971266 -0.2283643 0.25414506 0.24698527 0.6675488 0.74874467
0.20216097 0.7650707
00000000: 2826 72ba 2f8b 9abe a831 e9be c078 0f3f
00000010: a4f6 2e3f cbc8 e3be f3b9 25be 4fb2 c5bd
00000020: 2455 cd3e 6e07 3dbd fb61 5b3f 47c3 cf3e
00000030: 573b 193e c678 59be 2515 0a3f 5e10 d23e
00000040: 1031 393e 8f54 0a3f b272 11be 46a1 9cbe
00000050: af93 95be 08c8 c9bd 8ad7 b03e e413 25be
00000060: b88b 963e 73b8 403f 5a18 ce3d 035c 533f
00000070: d964 b83e 5694 233f c11b 763f b674 ab3e
00000080: ca7c fe3e 4248 203f d175 9f3e b611 b83e
00000090: cb18 dc3e b93a 95be 67bd 6c3f 160a 2f3f
000000a0: 4f63 c5be 1a28 e9bd f073 99be 55d8 69be
000000b0: 4d1f 823e b5e9 7c3e 7ae4 2a3f bbad 3f3f
000000c0: 4903 4f3e acdb 433f

bias f4 [5]
0.24414317 0.16172518 0.18683551 0.253657 0.16444077
00000000: ab00 7a3e 499b 253e cf51 3f3e 55df 813e
00000010: 2963 283e

weight f4 [3, 10]
0.5030086 -0.49126962 -0.48995227 0.52881014 -0.6406707 -0.17964754 -0.41090629 -0.21343155
-0.72838134 -0.1405644 0.18817386 0.14818059 0.23812655 -0.3674024 0.025037162 -0.41466016
-0.62564236 -0.47421008 -0.1047034 -0.58068794 -0.34233618 0.458544 0.51490146 -0.3842475
0.18791342 0.3182585 0.56385034 0.43611005 0.1436018 0.42321894
00000000: 2cc5 003f b187 fbbe 06db fabe 1a60 073f
00000010: ff02 24bf 86f5 37be 4f62 d2be cd8d 5abe
00000020: 3377 3abf 1df0 0fbe a6b0 403e a7bc 173e
00000030: 72d7 733e 2b1c bcbe bc1a cd3c 564e d4be
00000040: 192a 20bf aacb f2be bc6e d6bd f7a7 14bf
00000050: b046 afbe 47c6 ea3e 95d0 033f 17bc c4be
00000060: 606c 403e c7f2 a23e 7f58 103f d149 df3e
00000070: 5a0c 133e 27b0 d83e

bias f4 [3]
-0.124143146 0.20223811 0.25992632
00000000: c33e febd 8217 4f3e 1015 853e
